model.tflite (tflite, 377140 bytes, 9 tensors)

sequential/conv2d/BiasAdd/ReadVariableOp f4 [32]
000000 79 c4 89 3d 3c 3f 57 bd 0f 12 bd 3c d1 af b0 bd
       0.06726927 -0.05255054 0.0230799 -0.08627284
000010 9b 42 63 3d 50 1c 17 3c c9 e3 69 3c 83 61 c3 bb
       0.05548344 0.009223059 0.0142755 -0.005962552
000020 3d 11 87 3d e8 11 b4 bd ab 4c bd 3b ad 75 c8 bc
       0.06595085 -0.08792478 0.005776962 -0.024470175
000030 67 1c b7 3b 62 be 8a bd 30 a2 a8 3b 8d bf 50 bd
       0.0055881026 -0.06774594 0.0051462874 -0.050963927
000040 c0 35 2e 3d c7 8c 45 3d 63 09 40 bc 07 9f 59 bc
       0.04253173 0.04822996 -0.011720988 -0.013282544
000050 35 c7 30 3c 23 96 77 bc 73 49 a9 3a 4f 9d 7c bc
       0.010789682 -0.015111479 0.0012915566 -0.015418365
000060 40 4f 5a 3d fc 42 1c bd 38 87 e7 3c 0f 08 8f 3c
       0.053298235 -0.03814982 0.02826272 0.017459897
000070 9e cc aa 3d 46 88 73 bc 93 de a3 3b a4 58 84 bc
       0.08339809 -0.014864033 0.005000898 -0.016155548

sequential/conv2d_1/BiasAdd/ReadVariableOp f4 [32]
000000 c3 93 a4 3c 04 3c 3f bd 17 a4 b1 3b 0f 5b 92 3c
       0.02008999 -0.046688095 0.0054211724 0.017865686
000010 9f c6 14 bd dd 90 bc bb d8 98 e1 bc f0 23 99 3b
       -0.036322232 -0.0057545737 -0.027538702 0.0046734735
000020 ff aa 71 3d 06 c5 fe bc cb 39 5e bd 6a 97 40 3a
       0.059000965 -0.031099807 -0.054254334 0.0007346781
000030 47 dd 12 3d 52 8f 23 3d 62 09 d1 bb 80 7b 87 bb
       0.035855558 0.039931603 -0.0063792923 -0.0041345954
000040 6c 93 d4 bc 7b 3c 7a 3d e2 63 c0 bd 67 68 88 bc
       -0.025949202 0.061092835 -0.09394051 -0.016651345
000050 eb a4 8e 3c 7b 86 34 3d 8f a7 a1 bc 21 07 4b bc
       0.017412623 0.044073563 -0.019733218 -0.012391836
000060 55 74 2c bd b9 61 fe bc 0f 71 5a bc ce e5 61 bc
       -0.04210313 -0.031052457 -0.013332619 -0.0137877
000070 5c 29 0d bd f8 91 25 bc 33 fb ed 3b 62 80 f5 bb
       -0.03446327 -0.010105602 0.0072626113 -0.007492111

sequential/conv2d_2/BiasAdd/ReadVariableOp f4 [32]
000000 66 ea 49 3c a9 ba 48 bc e2 0f a0 3b 30 19 81 bc
       0.012323951 -0.0122515345 0.004884706 -0.01575908
000010 26 f0 22 bc 16 f9 1f bc ad bb 33 3c 03 ff 2f 3b
       -0.009944951 -0.009763977 0.010970038 0.002685488
000020 f7 f8 ca bc 9e 04 d8 bb 04 bb 12 3d 67 f3 c3 3c
       -0.024776919 -0.0065923473 0.035822883 0.023919774
000030 2d c8 b6 bc 6b 27 31 3c a6 a7 5f 3d ad 8e aa 3c
       -0.022312248 0.010812621 0.05460324 0.020819986
000040 dd 2c 25 bd dd 46 87 3c 14 bd d6 3b 5d c7 98 bc
       -0.040325988 0.016513282 0.0065533016 -0.018649751
000050 07 04 c4 3c 5e a3 92 3c 00 ad bd 3c db c7 86 3b
       0.023927702 0.017900165 0.023153782 0.00411318
000060 17 d6 2e bc 36 b2 e3 3c 9c ce a6 bc 78 82 91 3c
       -0.01067116 0.027794939 -0.02036219 0.017762408
000070 cb d9 3a 3d 95 ab 15 bc 3a ca 60 3b 13 77 28 3d
       0.04561786 -0.009135147 0.0034300224 0.041129183

sequential/conv2d/Conv2D f4 [32, 3, 3, 3]
000000 a5 04 60 3e 7f 13 09 3e 92 62 9c 3d 75 07 d2 3d
       0.21876772 0.13386343 0.07635988 0.102553286
000010 b5 80 61 3c 07 6a 26 3e 45 5b 1a 3d 0b e6 d3 bd
       0.013763596 0.16251384 0.037684698 -0.103466116
000020 ee 5e a1 bc d0 56 3a 3d 8a 48 06 3e 07 8e 1c bd
       -0.019698586 0.045492947 0.13113609 -0.038221385
000030 6c 2e ce 39 76 76 d7 3a 4f 8e 92 bd 9f 13 03 be
       0.0003932597 0.0016438502 -0.071560495 -0.12800454
000040 97 a0 ac 3c 0f d1 fd bd 5b 6a 77 3c 6d 59 08 bd
       0.021072669 -0.123933904 0.015101041 -0.033288408
000050 fb 07 81 bd 89 2b 49 be f6 39 3f be b3 ec 28 be
       -0.0630035 -0.19645514 -0.18674454 -0.16496544
000060 9d 6a 13 be 4f 8f 5d 3c a4 d2 63 bd 27 f5 46 3d
       -0.14396138 0.013522937 -0.055620804 0.04857364
000070 09 4a 1d 3d fe 0e 28 3e 48 f3 e5 bd e2 5e 65 bd
       0.038400684 0.16411969 -0.11228043 -0.05599869
000080 71 4d 68 3c c0 5a 03 3e e3 70 f7 bc e3 eb 67 bd
       0.01417862 0.12827587 -0.030205196 -0.056621443
000090 bc e0 65 3e 1d 3e 46 3e 9c bb b8 3d 31 bc b8 3d
       0.2244901 0.19359632 0.09020159 0.0902027
0000a0 e1 37 b1 3d 8e a8 7e 3d dc 44 da 3d 81 2d 9f 3d
       0.08653236 0.062172465 0.10657665 0.07772351
0000b0 96 a8 d7 bd ab e6 fe 3d 60 14 22 3e 74 73 cf 3d
       -0.10530202 0.1244634 0.15828085 0.10129443
0000c0 26 64 8b be e2 c2 79 be 4e 64 6c be 80 ca c7 3c
       -0.27224845 -0.24390748 -0.23085138 0.024388552
0000d0 f4 04 85 bd 26 59 17 bd 18 bb fa bc 2b 4f 1c be
       -0.06495085 -0.036950253 -0.030606791 -0.15264575
0000e0 58 b6 35 be 70 8a fb 3d ac 7e ee 3d f4 3f e3 bb
       -0.1774534 0.12282264 0.116452545 -0.006935114
0000f0 93 24 ba 3d 69 16 fa bd 0d c0 26 be b7 31 a6 bd
       0.09089007 -0.12211306 -0.16284199 -0.08114951
000100 c3 f2 08 bc 1b 16 72 bd 5f fa 1f 3e 6d f1 cf bc
       -0.00835866 -0.059103113 0.15622853 -0.025383675
000110 a2 39 86 3d b5 9f 18 be c6 c7 50 bd 54 b6 23 3c
       0.06553961 -0.14904673 -0.05097177 0.009992201
000120 2b 76 01 be 93 e6 9a bd 74 59 37 3d ac db 17 3e
       -0.12642734 -0.0756351 0.044763044 0.14829892
000130 4a b3 9f 3d c7 6f 07 3e 2e 3d c2 3d cf b8 61 3d
       0.077978685 0.13226233 0.09484325 0.055107888
000140 ea e8 d9 bc e9 7e 07 3e 2d bd 4d 3d 43 cc 08 3e
       -0.02660032 0.13232006 0.05022924 0.1335917
000150 6a 88 b3 bd b8 b0 cf 3d a7 58 0d 3e d6 ac 04 3e
       -0.08766253 0.10141128 0.1380335 0.12956557
000160 a3 af 93 3d 2b 9b 0c 3e 4e ef 4d bd a6 d6 bf 3d
       0.072112344 0.13731067 -0.050277047 0.09367113
000170 24 62 ca bc 0c 47 fc bd 82 cf 55 3d 9e 82 a9 3d
       -0.024705 -0.123182386 0.052199848 0.082768664
000180 5b 9f 85 3d f1 af 1f be 81 1c ef bd 4a 08 48 bb
       0.06524535 -0.1559446 -0.116753586 -0.0030522519
000190 51 d1 0b 3e b9 8c f1 3b a7 96 83 3d 1e 60 da 3d
       0.13654067 0.007371512 0.06425219 0.10662864
0001a0 28 20 9e 3d 4c 36 9d bd f0 05 6c 3d 09 f4 64 bd
       0.07720977 -0.07676372 0.05762285 -0.055896793
0001b0 19 28 bb be 22 96 c1 be f6 2f aa be 1b 56 e4 bd
       -0.3655403 -0.37809855 -0.33239716 -0.11149236
0001c0 30 3c 46 be de 56 d2 bd 7a f2 b4 bd f8 a1 35 3d
       -0.19358897 -0.10270475 -0.08835311 0.04434392
0001d0 6c d3 88 bd 4a 1e c2 be 2e a5 33 be 7b 03 ab be
       -0.066809505 -0.37913734 -0.1754348 -0.33401093
0001e0 e1 e0 1f be 2a 13 b7 3c 08 5f 83 bd 13 c6 0e 3e
       -0.15613128 0.022348005 -0.0641461 0.13942747
0001f0 9d fa 5e 3e 13 ea 72 3e 3e a9 a0 be 30 13 bb be
       0.21775289 0.23722105 -0.31379122 -0.36538076
000200 e4 5b 8f be 71 20 9a bc 9a 69 ac bb 59 2a 5c bd
       -0.27999794 -0.018814297 -0.005261612 -0.053751323
000210 81 6d 41 3e 2c 31 e9 3d 92 09 01 3d 9c 0e 1d 3c
       0.18889429 0.11386332 0.031503268 0.009586003
000220 f5 57 e4 3c 66 4e 86 bc ec 1c 4f be 8f 70 6d be
       0.027873972 -0.016394805 -0.20225877 -0.23187469
000230 81 66 5f be 3c 8f 00 bb 02 0d 7d bd 79 ea 14 be
       -0.21816446 -0.0019616624 -0.061779983 -0.14542569
000240 dc 67 26 3e 46 cd 1c 3e b1 d5 bf 3d f1 a8 64 3d
       0.16250557 0.1531268 0.0936693 0.055825178
000250 53 59 cd bb 6a 4b 38 bd 6c 83 0f bd ad c8 8b bb
       -0.006266752 -0.044993795 -0.035037443 -0.004265866
000260 bc 18 0d 3e da e5 2a 3d d6 c5 71 bc a3 88 2c 3e
       0.13778967 0.04172311 -0.01475664 0.16848998
000270 64 5f ee bd e1 a7 7c bd 40 dc d6 3d 7f b9 fe 3d
       -0.11639288 -0.06168354 0.10491228 0.12437724
000280 20 d5 c8 bc ee 39 f9 3d 99 ee 56 bd a7 ac c9 3b
       -0.024515688 0.12169252 -0.05247364 0.006154615
000290 1e be c3 bd 1c b8 4d 3e b4 97 d4 3d 0a ce ad 3d
       -0.09557746 0.20089763 0.103804976 0.084865645
0002a0 c0 ce 9e 3d 3c 8f a3 bd cc 01 f2 ba 61 43 9a bd
       0.07754278 -0.07986304 -0.001846367 -0.07532383
0002b0 1e fd d2 3d 1d c5 0a be d8 d0 36 3e 08 82 e0 3d
       0.103021845 -0.13551755 0.17853105 0.109623015
0002c0 70 60 90 bd 73 e9 d2 3c d3 26 f1 bd fc 5b 8d 39
       -0.07049644 0.025746083 -0.11774983 0.0002696215
0002d0 26 bb d3 3d b1 0e 7b bc d1 c2 39 bc 95 65 f6 bd
       0.1033843 -0.015323327 -0.011337952 -0.12031094
0002e0 c2 bb 44 bb 98 1e bc bd 25 b3 13 be d0 57 6c bc
       -0.003001914 -0.09185523 -0.14423807 -0.014425233
0002f0 61 e9 7b bd 3d 49 20 3d d9 dd 01 bd 14 91 41 be
       -0.061501864 0.039132345 -0.03170571 -0.18902999
000300 82 b6 27 be c4 09 11 be 95 c3 6e be cd f9 ba bb
       -0.16378215 -0.14163882 -0.23316796 -0.005706048
000310 d0 a3 91 bd 09 e3 c9 3d 60 4d a0 3d e9 ab 07 bd
       -0.07111323 0.09857757 0.07827258 -0.03312293
000320 a7 59 12 bd c5 98 8b bd 48 73 14 bd 04 06 e6 3d
       -0.03573003 -0.06816248 -0.036242753 0.11231616
000330 70 c5 2a 3c 28 57 4e bd 8f 18 0e 3e 6b 96 20 3d
       0.010423049 -0.050376087 0.13876556 0.03920595
000340 9d 40 27 be d3 e3 04 be fe 88 91 3d 2c d6 0f 3e
       -0.16333242 -0.12977533 0.07106207 0.14046544
000350 a6 42 f9 3c fd 8f ce 3d a0 35 06 3e b5 03 a1 3d
       0.030427288 0.10086057 0.13106394 0.07862035
000360 94 d0 67 3d 46 8f d0 3d 05 08 02 be e0 eb 6a bd
       0.0565954 0.10183577 -0.12698372 -0.057353854
000370 fc c4 2c bd c6 aa 38 be 84 52 b9 bd be 37 a4 bd
       -0.042180046 -0.18033895 -0.09048942 -0.080184445
000380 e8 4e 0b be d3 9c 95 3d d5 06 b3 bc f0 bf 80 bd
       -0.13604319 0.073053025 -0.021853844 -0.06286609
000390 01 4d 3b be 37 51 65 be a0 d1 4b be 79 f5 1d bd
       -0.18291093 -0.22394262 -0.19904184 -0.03856418
0003a0 4b 40 12 be f3 dc 06 3c 75 7c 69 3e b8 26 37 3e
       -0.14282338 0.008231389 0.22801383 0.17885864
0003b0 83 3e 5c 3e fe 34 e2 3d f9 fe c3 bc aa 5d dc 3d
       0.21508221 0.11045264 -0.023925291 0.107600525
0003c0 ba 6f 79 3d bd 0e 83 bd 2a 33 54 3d 82 a2 46 3d
       0.060897566 -0.063992955 0.051806606 0.048494823
0003d0 04 c0 fb bd 82 67 e6 bd 08 ae 25 3d 28 87 20 3e
       -0.122924834 -0.11250211 0.040449172 0.15676558
0003e0 28 db 9f 3c 95 a8 f7 bd 2f 53 04 bd 25 55 11 be
       0.019513682 -0.12092701 -0.032305893 -0.14192636
0003f0 2a ff c7 3d c6 ff 24 3d 76 d4 cf 3d 9c 01 86 3c
       0.097654656 0.040282987 0.101479456 0.01635819

sequential/conv2d_1/Conv2D f4 [32, 3, 3, 32]
000000 78 20 64 3e 71 d4 3d 3e a4 da 7d 3d ce 91 44 bc
       0.22278011 0.18538071 0.06197609 -0.011997653
000010 3a 22 82 be 80 85 30 3d c5 b7 f1 3c 5a 90 76 be
       -0.25416738 0.043096066 0.029506573 -0.24078503
000020 f8 f7 01 3d bf fe 2a be 71 24 4c 3e b0 56 db bc
       0.031730622 -0.1669874 0.19935776 -0.026774734
000030 65 cb 14 3d 2b c1 ab bd ed 4f f3 3d d7 83 66 3c
       0.036326785 -0.08386453 0.11880479 0.014069519
000040 64 d4 61 bd 18 f0 3b bc 6b d7 01 be 0c 95 e4 bb
       -0.055134192 -0.011470817 -0.12679832 -0.0069757756
000050 67 ce d0 39 1d b0 eb 3b 20 46 42 3e 47 d1 00 3d
       0.00039826633 0.007192625 0.18972063 0.031449582
000060 a5 b1 56 3d 06 31 c2 bd c9 46 51 3e ca 95 39 be
       0.05241551 -0.09482007 0.20437159 -0.18123546
000070 5f be 4b 3e c1 50 6a 3e 59 c3 4d 3e 54 d9 e9 3d
       0.1989684 0.22882368 0.2009405 0.11418405
000080 ea 65 9e bb b3 9b 15 3d f9 86 31 bd c9 ac 65 3d
       -0.0048339264 0.03652544 -0.04334161 0.056072984
000090 b9 7a b6 3e 45 4c 7e be ae a6 45 bd ef d4 c1 3d
       0.35640505 -0.24833782 -0.04825466 0.09464442
0000a0 d2 86 c8 bd ab 28 15 be a1 13 f1 b9 5f 11 ad bb
       -0.0979134 -0.14566295 -0.00045981727 -0.005281612
0000b0 bb 0d 11 be 0f bf b8 bd 91 20 e1 3d a3 98 97 bd
       -0.14165394 -0.090208165 0.1099254 -0.0740216
0000c0 c9 cf 88 3d db 6f 3c 3e bb 24 8b 3d 81 df a7 bd
       0.06680257 0.18402044 0.06794115 -0.08196927
0000d0 5e bf a1 3d 1b 86 1d 3e d0 5b a4 3d d9 25 09 be
       0.078978285 0.15383188 0.08025324 -0.13393344
0000e0 6d 97 9f 3d b4 6d 37 bd bd dd 47 3d c7 ae ed bb
       0.07792554 -0.044782355 0.04879545 -0.007253501
0000f0 ea a2 6d be d1 f8 71 3c b7 7b b2 bc 9e 86 b7 bd
       -0.23206678 0.014768795 -0.021787507 -0.08961223
000100 7d 3d 84 3e 42 77 66 3d 0b 83 bd bd 76 4b 0f bd
       0.25828162 0.056266077 -0.0925351 -0.034984075
000110 28 11 0f 3e 24 95 7d bd de 1b c2 3c 8c 57 88 bb
       0.13971388 -0.06190981 0.023694929 -0.004160827
000120 18 4b f6 3d 84 68 6f bd a2 4d 01 3e 7e f4 34 3d
       0.12026042 -0.058449283 0.12627271 0.04417848
000130 e6 db 42 3d 61 23 e9 bd b1 53 e3 3d a7 e3 be 3b
       0.047572993 -0.11383701 0.11099947 0.005825478
000140 7b dd 9e bd 0b 8a 21 3e e9 1b d8 3d 01 77 c8 bd
       -0.07757088 0.15775315 0.105521984 -0.09788323
000150 c8 21 c4 bd 45 a2 b0 bc 60 32 5d bc f1 44 a2 3d
       -0.09576756 -0.021561751 -0.01350078 0.07923306
000160 64 fc 7d 3e 40 02 50 bb 2b 56 5b bc df c5 14 3d
       0.2480331 -0.0031739622 -0.013387243 0.036321517
000170 40 29 54 3e 84 7a 94 3d a9 e1 d7 bd c4 28 e0 bc
       0.2071886 0.072499305 -0.10541088 -0.027363189
000180 5f 09 80 3d d5 e6 09 3d e4 27 3e bc 42 d3 29 3e
       0.062517874 0.033667404 -0.01160619 0.16584495
000190 fb d3 a6 be dc 45 c9 3d 34 20 e2 3d df 89 08 3d
       -0.32583603 0.09827778 0.110412985 0.03333461
0001a0 46 32 62 3e 9c ff 0b 3e 75 21 a9 3e a9 a2 02 be
       0.2208949 0.13671726 0.33033338 -0.12757362
0001b0 ff 1f b4 be 4f d5 12 3d 2b 6c 0d 3e 6f 82 77 be
       -0.3518066 0.03584796 0.13810794 -0.2417085
0001c0 97 3f ce bd bb 14 b0 bd 9b 78 aa 3d 37 b5 3f 3e
       -0.100707226 -0.08597704 0.08323785 0.18721472
0001d0 79 a8 53 3d e8 80 b5 bc 96 aa 60 3e 83 2e 0c 3c
       0.05167434 -0.022156194 0.21940073 0.008556011
0001e0 c2 43 4f be f5 c7 c4 ba 41 96 1d be eb 7b db bd
       -0.20240691 -0.0015013205 -0.15389349 -0.10716995
0001f0 db 23 08 3e 3f 2c 80 bd f0 8f fd 3d 73 24 46 3e
       0.13294928 -0.06258439 0.123809695 0.19349842
000200 15 2f 25 3e 46 9b 1f be ec 0c ab bd 57 26 44 bd
       0.16131242 -0.15586576 -0.08352074 -0.047888126
000210 dc ca c6 bc 32 34 f8 3b 62 c5 ea bd 97 df 43 3e
       -0.024266653 0.0075745815 -0.11463429 0.19128262
000220 62 81 a5 3d 64 f8 11 bd e8 02 6b bd 0a 49 f2 3d
       0.080813184 -0.035637274 -0.05737582 0.11830337
000230 63 e6 b2 3d ef 22 4e be 35 89 cd bd 31 5e fb bc
       0.08735349 -0.20130514 -0.10035936 -0.030684562
000240 48 17 ae 3d 9b 84 a1 3b 72 df 1e 3d 08 31 dc bd
       0.08500534 0.004929138 0.038787313 -0.107515395
000250 82 80 85 3c 1c 47 e1 bd be 20 60 3b b4 1e f2 ba
       0.016296629 -0.10999891 0.0034199203 -0.0018472285
000260 13 d2 f8 bd b0 dc ef bd 78 b1 3c bd f5 80 d8 bc
       -0.121494435 -0.11712015 -0.046067685 -0.026428679
000270 60 e6 69 3c 50 eb 3b be 82 39 2f be 7f f8 53 be
       0.014276117 -0.18351483 -0.17111781 -0.20700262
000280 1c a1 65 be f0 c2 18 be 9b 87 76 bd a9 bc ae bd
       -0.2242474 -0.14918113 -0.060187917 -0.08532078
000290 88 e8 67 3e d3 0f 2c bc 09 97 93 be 09 5c 95 3e
       0.22647297 -0.01050182 -0.28826168 0.2917178
0002a0 3c fa 56 bd d7 6c bc bd aa c9 31 be c8 9c 4d 3d
       -0.052484736 -0.09200447 -0.17362085 0.050198346
0002b0 e1 a1 bf bc e2 f8 b9 3d cd df 09 be 96 3d 7c bd
       -0.02339262 0.09080674 -0.1346428 -0.06158217
0002c0 4f a9 7a 3c e3 17 05 be cf 96 36 3c 32 ac 7d be
       0.015299155 -0.12997393 0.011144354 -0.24772719
0002d0 dc bc 02 ba 23 f9 0f 3d ba e5 8d be 9e 34 66 3e
       -0.00049872487 0.035149705 -0.2771433 0.2248101
0002e0 83 2f a1 3d b0 b6 77 3d ca 8d e0 bd a3 32 9b bb
       0.0787039 0.06047696 -0.10964544 -0.004736261
0002f0 1e 92 ce 3d c1 ad 86 bb 8b 7c 7c be f9 3f 8b bd
       0.100864634 -0.0041100685 -0.24656884 -0.06799311
000300 56 43 2d 3e b7 ee ee 3a 6b bf 62 bd 8f cf 6c bd
       0.16920218 0.0018229102 -0.05535833 -0.05781513
000310 6c 92 33 be b6 dc 25 3e e7 4a ff bd 29 3b 46 3e
       -0.17536324 0.16197476 -0.12465458 0.19358505
000320 ca 1d c9 bd 2d 40 4c 3e 13 2b 8b 3e 41 a2 59 bc
       -0.09820135 0.19946356 0.271813 -0.013283313
000330 19 d6 4a bd 5a 1d d5 3d 39 f2 b8 bd 11 bf 3f 3e
       -0.049520586 0.10405989 -0.09030575 0.1872523
000340 fb 4b 64 be e4 ce 44 3e c2 b0 69 bd a2 05 5f 3e
       -0.22294609 0.19219548 -0.057053335 0.21779492
000350 6e 07 88 be 15 8a ad 3a 0e 01 c6 3b 8d 29 8b 3d
       -0.26568168 0.0013240004 0.006042606 0.067950346
000360 a4 c1 4c be a2 16 cc bd ad 5f 80 bd 93 ff 1d be
       -0.19995743 -0.09965254 -0.06268249 -0.15429525
000370 1c 8b c5 3d f8 2f c1 bd fa ee 2f be 9c 31 2d 3e
       0.09645674 -0.094329774 -0.17181006 0.16913456
000380 b8 e7 b3 bd f8 2b 0b 3e c5 df 5a 3c f4 0a 60 bd
       -0.08784431 0.13590991 0.013359015 -0.054697946
000390 2c 11 5d 3e 52 62 e1 3d 7d 16 b4 3b ba 69 9d bb
       0.21588582 0.11005081 0.005495845 -0.0048038634
0003a0 67 c3 9c 3d 7e f9 3b 3e 84 50 e1 bc 32 5e ae bd
       0.076544575 0.18356892 -0.027504213 -0.0851406
0003b0 42 1e be bd 36 96 e7 3d da 74 ad bc fe d6 c1 bd
       -0.09283115 0.11307947 -0.021173883 -0.09464835
0003c0 cc 1e 3f be 82 56 39 be a3 40 85 bd c0 42 75 3e
       -0.18664092 -0.18099406 -0.06506469 0.23951244
0003d0 f5 73 71 be 07 f5 c8 bd 90 07 f3 3c 2b 93 4a 3c
       -0.2357939 -0.0981236 0.029666692 0.012364189
0003e0 63 cc 73 bd e1 f1 89 bd e3 fe 61 be 62 66 57 be
       -0.05952109 -0.06735588 -0.22069888 -0.2103515
0003f0 ac 2e 93 3e ff dd 1d 3e 70 5a 64 3b ec 2e 3b 3e
       0.28746545 0.15416716 0.0034843944 0.18279618

sequential/conv2d_2/Conv2D f4 [32, 3, 3, 32]
000000 96 7b 88 bd e5 a3 43 be c9 02 17 3d 09 27 6e 3d
       -0.06664197 -0.1910549 0.03686789 0.058142696
000010 52 e4 a2 bc f4 95 38 bc d0 10 54 3d 7b b2 4e bd
       -0.019884262 -0.01126622 0.051773846 -0.05046318
000020 5a 84 2e 3d 2e d8 d5 3d d0 0e 94 bc 1d 4e d1 3d
       0.04260669 0.10441624 -0.01807347 0.10219977
000030 03 67 4d be 1c 01 ea bb 55 25 8f bc 5e ce 1f bd
       -0.20058827 -0.0071412455 -0.017473856 -0.039015166
000040 01 e7 21 bd 14 86 50 3d 00 1c 71 be 6b 07 de 3d
       -0.039526943 0.050909117 -0.23545837 0.108412586
000050 54 b6 74 3e eb 31 13 be fd 7d d0 bd 40 72 7c bd
       0.23897678 -0.14374511 -0.1018028 -0.061632395
000060 88 b1 43 be 57 3a 70 3d 20 58 c9 bd fb 10 0e be
       -0.19110692 0.058649387 -0.09831262 -0.13873665
000070 63 f0 aa bd fb a0 f5 3c f5 3a ea 3d a6 55 35 bd
       -0.083466314 0.029983988 0.114370264 -0.044271134
000080 09 df b3 bc b1 97 29 3e 51 db 30 bd 1f 91 ff bd
       -0.021956937 0.16561772 -0.043177906 -0.124788515
000090 ec 3f 2d be 98 56 0a 3e da 6c 41 bd 75 95 ee 3d
       -0.16918916 0.13509595 -0.04722295 0.116496004
0000a0 b5 c9 04 be b6 79 9b 3b ac 9d 3e 3e ae 10 7f 3c
       -0.1296757 0.0047447337 0.18614835 0.015567942
0000b0 da 3d e6 bd 14 2a fd bc 5f 61 a8 3c e6 d6 05 be
       -0.11242266 -0.030903853 0.020554243 -0.13070258
0000c0 36 65 02 be e3 c4 89 bd 51 2a ef bc b6 de ed bd
       -0.12733921 -0.06727006 -0.029194983 -0.11614744
0000d0 76 e9 c9 bd c9 66 4d bc a8 a0 8a 3d 3f 55 3c 3d
       -0.09858982 -0.012536713 0.06768924 0.045979735
0000e0 f3 3e 08 3e bd e1 02 be 4e 88 fc 3d 86 a5 ca 3d
       0.13305263 -0.12781425 0.123306856 0.09894852
0000f0 66 42 be bc 93 f3 b7 3d 44 37 2a 3e a6 2f 7b 3c
       -0.02322502 0.08982005 0.16622645 0.0153311845
000100 d9 c6 08 3e fc 85 ac bd de d0 59 bd ef 05 a4 bd
       0.13357104 -0.08423993 -0.053177707 -0.08008944
000110 78 d5 d9 3c a1 02 a8 bd 51 21 aa 3d 96 a9 07 bd
       0.026591048 -0.082036264 0.08307136 -0.033120714
000120 85 29 73 be d8 f8 d9 bd 47 79 6b 3d 8a a0 47 bd
       -0.23746307 -0.10643166 0.057488706 -0.048737086
000130 ee a4 e5 3c 8f 19 ba bc 22 f9 d4 bc 3f 3c d8 bd
       0.028032746 -0.022717265 -0.025997702 -0.10558366
000140 43 80 1f be bb 3c 51 3d fa 7a c2 bd 40 b9 e9 bd
       -0.15576272 0.051083308 -0.09496112 -0.11412287
000150 f8 a6 c9 3c 4e 0e 1c bb 7e ed 90 bd 8f 46 d1 bd
       0.02461575 -0.0023812237 -0.07076548 -0.10218536
000160 cd 26 98 3d 89 c0 88 bd af 61 99 bd c8 06 d2 3d
       0.07429276 -0.06677348 -0.07489335 0.102552
000170 45 d3 f4 3d 89 c0 80 bd 2b 7f 5e 3c 1f f3 a9 3d
       0.11954359 -0.06286723 0.013580124 0.08298325
000180 00 c3 ae bd b9 be f6 bc b8 65 16 3e 6f 01 94 bd
       -0.08533287 -0.03012024 0.1468724 -0.07226836
000190 6f 9d 31 3c 39 d5 e5 3d 12 0f 8f 3d b3 2e 0a bd
       0.010840758 0.112223096 0.06985296 -0.033735942
0001a0 b3 e8 7a bb d7 91 6a bd db e5 11 3e 31 d4 08 be
       -0.0038285672 -0.05726799 0.14247839 -0.13362195
0001b0 3b 42 94 3d db 19 aa 3c 9c 63 69 be 54 06 60 3e
       0.07239195 0.020764282 -0.22791904 0.21877414
0001c0 d6 96 fb 3d 97 fc 4b 3e 52 62 5b 3c 53 87 d4 bd
       0.12284629 0.19920574 0.013390141 -0.103773735
0001d0 28 2c c2 3d 0e e8 15 3d 8e 94 90 bb ad 17 f8 bd
       0.094810784 0.036598258 -0.0044122403 -0.12113891
0001e0 a7 b6 bd 3b cd 03 32 3e 2b b1 cc bd 50 51 ee bd
       0.005789596 0.17384262 -0.099947296 -0.11636603
0001f0 40 74 16 3d 62 23 34 3c 84 96 9c bd a6 a3 a2 bd
       0.03673196 0.010994764 -0.07645896 -0.0794137
000200 62 4f 0a be 0d 76 07 3e a3 f5 f6 bd 80 55 c4 3d
       -0.13506845 0.13228627 -0.1205857 0.0958662
000210 3a 58 8d bd f0 79 37 3d 13 7d f2 bc 23 e9 04 3d
       -0.069015935 0.044794023 -0.029600656 0.0324489
000220 f8 6a b1 3d 8d a8 c6 3d cc b0 66 3d 72 a4 0b 3e
       0.08662981 0.09700117 0.05632095 0.1363695
000230 e7 0c be 3d 0d 63 9d 3c 45 b2 e7 3d a7 49 02 3d
       0.09279805 0.01921227 0.11313299 0.03180852
000240 1a 77 08 be ff a5 3f bd 88 ad 0f 3e b9 4c 0c 3d
       -0.13326684 -0.046789166 0.1403104 0.034252856
000250 ae 8e 24 3e 52 bd 1d be ee ec 45 bd 70 c6 30 3d
       0.16070053 -0.15404251 -0.048321657 0.043157995
000260 65 05 9f bd 22 40 81 bd dc 2e 4e 3e 8c 7f 7a bd
       -0.07764701 -0.063110605 0.20135063 -0.061156794
000270 8d 12 5c 3e ab 27 44 3d aa 84 58 3e f1 37 4a 3c
       0.21491452 0.047889393 0.21144357 0.012342439
000280 5f 3d 04 be da 37 af bc fb 3e 80 bd 38 b0 94 3d
       -0.12914036 -0.021388937 -0.062620126 0.072601736
000290 90 d3 47 bd 5d b2 24 be 11 a3 42 3d 1a b9 96 bb
       -0.048785746 -0.16083665 0.047518793 -0.0045997025
0002a0 62 82 06 3d 36 24 12 be ff a7 11 bd 57 5d dd 39
       0.032839186 -0.14271626 -0.035560604 0.00042221948
0002b0 58 13 07 3b e1 e5 3a 3e f1 89 bd bc 6c 99 60 bc
       0.0020610895 0.18251754 -0.023137065 -0.013708454
0002c0 85 7c a1 3d 5f 6a d8 bd b2 f5 20 bd 72 4f 11 bd
       0.07885078 -0.10567164 -0.039296813 -0.035476156
0002d0 be 46 1e be 34 ba 38 bc c3 b2 13 be 59 f7 af 3c
       -0.15456674 -0.011274863 -0.14423661 0.02148025
0002e0 ee 09 33 3d fe c8 31 3d da c6 16 be 86 84 6d 3c
       0.04371064 0.04340457 -0.14724293 0.014496928
0002f0 1c ce bc bd 6a 7a d8 bd f3 4b 15 bb e1 10 1f be
       -0.09219 -0.10570224 -0.0022780865 -0.15533783
000300 65 0e 25 be e5 25 0a 3e 61 f0 50 3c d4 c1 fa 3c
       -0.16118772 0.13491018 0.012752623 0.030610003
000310 82 27 aa 3c 29 75 db 3d 0c c7 6e be 22 1d 05 3d
       0.020770792 0.10715706 -0.23318118 0.032498486
000320 57 85 c1 3c 8c 26 02 be 17 99 0d 3e 39 50 93 3d
       0.023623152 -0.12710017 0.1382793 0.07193036
000330 af b9 16 3e a5 35 9f 3d 2f 26 c0 bd ea 41 fa bd
       0.1471927 0.07773904 -0.09382283 -0.12219603
000340 3e 74 09 3e 3c aa 05 be 18 9a c7 3d 92 7d 8a 3d
       0.13423249 -0.1305322 0.09746188 0.06762232
000350 d7 30 e9 bd 0d e9 4b bd 6f bf dd bc 72 f9 e3 bd
       -0.113862686 -0.0497828 -0.027068822 -0.11131562
000360 90 d3 14 3e 96 61 73 3d b6 c6 37 be b7 de 0a be
       0.1453383 0.059419237 -0.17946896 -0.13561521
000370 c5 78 05 be f2 5b 08 3d dc 9f bf 3d 4c a0 a7 3d
       -0.13034351 0.03329081 0.09356663 0.08184871
000380 d9 8a 3a be 47 42 1a 3e 49 a7 a9 be 75 dc 86 bd
       -0.18217029 0.15064345 -0.3313544 -0.065850176
000390 11 08 0c 3e c5 ff f8 3c 79 3a d4 3d aa 46 41 be
       0.13674952 0.030395398 0.10362715 -0.18874612
0003a0 64 05 97 bc b5 9e f8 3c 6d f1 af bd 68 86 ff 3d
       -0.018435188 0.030349115 -0.0859097 0.12476808
0003b0 ec 34 bd 3d 6d ac 0a bd 82 b1 8f bd 47 69 28 be
       0.0923861 -0.033855844 -0.07016279 -0.1644641
0003c0 a7 0f 65 3d 34 ba 84 be e7 ab ae 3d d5 15 f8 3d
       0.05592313 -0.25923312 0.085288815 0.12113539
0003d0 d9 2c fb bd 6c c2 a6 bb 82 fe 8b bd f5 23 fe 3b
       -0.122644134 -0.005089095 -0.06835653 0.0077557513
0003e0 1a 07 6f bd 73 c4 b1 3d fe e1 9a bd 8d d6 04 bb
       -0.058356382 0.08680048 -0.07562636 -0.0020269484
0003f0 50 14 fd bd 08 00 d2 3d 29 56 12 3e 8c e8 71 3a
       -0.1235739 0.10253912 0.1429068 0.00092280726

sequential/dense/BiasAdd/ReadVariableOp f4 [64]
000000 d3 40 bb bc 50 bb 08 bc fe 44 74 bc c1 93 2d 3c
       -0.022858059 -0.00834544 -0.014909027 0.010594309
000010 13 f1 4b 3c 49 d0 37 bc fa 55 fb bb 07 11 c0 3b
       0.012447613 -0.011219093 -0.0076701613 0.005861405
000020 d6 77 0c bc e0 5c 5a bb c7 7b 0d bc af 7c 1e 3c
       -0.008573493 -0.0033319518 -0.008635468 0.009673282
000030 df 2c e0 bb be e4 73 bc 3a 66 8a 3b a6 d0 9b 3c
       -0.0068412866 -0.014886079 0.004223612 0.01902039
000040 26 0d 50 bc 9c be d1 3b 7f 66 74 bc 49 34 2d 3c
       -0.012698447 0.0064008962 -0.014917015 0.010571548
000050 f5 2a 42 bb 33 0f a1 3b 1f 10 a8 bb d4 ff ee bb
       -0.0029627655 0.004915142 -0.005128875 -0.0072936807
000060 32 e1 25 bc 88 94 99 ba 50 5c 66 bc eb 95 05 3b
       -0.0101244915 -0.0011717239 -0.014060095 0.0020383548
000070 df 8f bf 39 52 7d f2 bc 13 d7 2e bc fa 20 01 bb
       0.0003653755 -0.029600773 -0.010671395 -0.0019703493
000080 7a ee 86 3a da 44 68 bc 0c 3b 48 bc 58 d4 a5 3c
       0.001029446 -0.014176572 -0.012221109 0.020242855
000090 7f 19 fe bb 67 9b 5d bc 6e 13 87 bb 6e 71 ec 3b
       -0.007754504 -0.01352582 -0.0041221892 0.0072156703
0000a0 3e a4 02 bc 40 88 a0 bb f6 09 a9 3a f6 56 91 bc
       -0.007973729 -0.0048990548 0.0012896645 -0.017741662
0000b0 28 68 29 3c c7 23 90 bc fc bc 7a 3c ea 0a 3c 3c
       0.010339774 -0.017595185 0.015303846 0.0114772115
0000c0 11 3d ea bb 2c 7c eb 3c 1f 27 3f 3a 51 42 95 3b
       -0.007148393 0.028745733 0.0007291901 0.0045550247
0000d0 63 ac b2 3b f7 20 e4 ba 58 93 9f 3c 2d 6a 0e 3c
       0.005452679 -0.0017404844 0.019479439 0.0086923065
0000e0 52 a8 f5 3a 44 87 52 bc 8c 1e 6c 3c 87 ca 26 bc
       0.001874218 -0.012849633 0.01441158 -0.010180122
0000f0 b0 29 35 bc 0a 6b c5 3c 6a 61 3e 3b d6 12 54 bc
       -0.011057302 0.024098892 0.0029049763 -0.012943944

sequential/dense/MatMul f4 [64, 1152]
000000 4a 6f 6f 3d dc 45 95 3c db 71 1f bd 74 17 88 3c
       0.058455743 0.018221788 -0.03892694 0.016612746
000010 7d 4c 53 bd d7 b5 59 bd 00 07 08 bd 7a 10 f5 3c
       -0.051586617 -0.05315193 -0.0332098 0.029915083
000020 88 bc 62 bd c0 a7 09 bd 56 e8 8e bc 6d 29 0d bd
       -0.05535558 -0.033607244 -0.01744477 -0.034463335
000030 43 a0 86 3d 60 7e e2 bc 39 25 94 bd bb ee 7d bb
       0.06573536 -0.02764815 -0.07233662 -0.003874703
000040 2c e9 6b bd 62 8b 35 3d 1f 37 38 3c 2b 47 35 3d
       -0.057595417 0.04432238 0.011243611 0.044257324
000050 4e 14 93 bc ec bd db 3b 88 7d 6d bc 1f cc f6 3c
       -0.017954018 0.00670599 -0.014495261 0.03012663
000060 f4 6c 84 bc be 82 ec 3a 7e 6b 29 3d 43 47 74 3d
       -0.016165234 0.0018044335 0.04136228 0.059638273
000070 92 ea 44 bd e4 49 01 bd 63 06 13 bb 30 d8 fe bc
       -0.048075266 -0.03156461 -0.0022434227 -0.031108946
000080 b1 24 d7 3c 80 a6 6a ba c7 84 1a bd 4f 5e 46 bd
       0.026262613 -0.0008951202 -0.037724283 -0.048429783
000090 47 27 a1 bd 35 53 34 bc 52 73 ea 3d 44 14 e6 bc
       -0.0786882 -0.011006166 0.11447777 -0.028085835
0000a0 c5 2b 1e 3c 5f d6 8a bd d1 d9 df 3c 65 10 8c bd
       0.00965399 -0.06779169 0.027325543 -0.068390645
0000b0 4e 0e 8b bd ff 35 85 3a 61 9b aa 3c fb b5 65 3d
       -0.06789838 0.0010163187 0.020826044 0.056081753
0000c0 6e 5f 39 bd bc 3f 88 bc 21 a0 a7 bd 25 0d ae bc
       -0.045257024 -0.016631953 -0.08184839 -0.021246502
0000d0 3f d7 ee bd ff 69 43 bd 10 0b e7 bc b2 73 3c 3b
       -0.11662149 -0.047708508 -0.028203517 0.0028755483
0000e0 36 d1 3b 3c 98 78 60 bd fb 33 09 bd d4 b4 09 3d
       0.011463454 -0.054802507 -0.033496838 0.033619717
0000f0 50 7a 26 bd 99 dc a7 3b d4 8f 85 bb 4f 0c e7 bb
       -0.04064399 0.005122733 -0.0040759835 -0.007051028
000100 7d 5b 49 bb 9e 23 16 bd 32 fd d0 3b 0d 4f 36 bc
       -0.0030724697 -0.03665506 0.0063778395 -0.011127246
000110 f2 83 ef 3b 2c 5b 1c bb a8 9a 17 3c 95 9b 0b bd
       0.0073094303 -0.0023858054 0.0092531815 -0.03408392
000120 0d 38 a0 bc f4 4a 73 bd a3 15 17 bc 9a e0 fb bc
       -0.019557977 -0.059397653 -0.009221467 -0.030746747
000130 a0 b1 3e bd b4 e5 80 3c e0 c0 e9 3c 15 3d 44 bd
       -0.046556115 0.015734531 0.028534353 -0.047909815
000140 dd 08 bf 3b c8 7d 99 bc c7 39 bd bd 30 94 62 3c
       0.005829914 -0.018736735 -0.09239536 0.013829276
000150 72 ec e9 bb 94 32 5b 3c 74 3e 1e bd a0 cb 5b bd
       -0.007138782 0.013378758 -0.03863378 -0.05366099
000160 01 1a 94 3d 3e 6b ce 3d 3b 08 6f 3d f8 59 9a 3d
       0.07231522 0.100790486 0.05835746 0.075366914
000170 19 66 b2 3c 1a f3 02 bd 4a c7 85 bd da 92 2d 3d
       0.0217772 -0.03197012 -0.06532152 0.042376377
000180 8b 39 da bd a2 59 2f bd a9 9b 9f 3d fe 81 f8 ba
       -0.10655507 -0.04281009 0.07793362 -0.0018959639
000190 84 dc 02 bd 40 1c bc bd 4f 8c 72 3d 6d 2f 02 bc
       -0.03194858 -0.09185076 0.05921584 -0.0079458775
0001a0 d9 d6 66 3d 51 5f 1e bd c1 30 85 bd 8a 4a 75 3c
       0.05635724 -0.03866512 -0.0650344 0.014971385
0001b0 02 f3 98 bd 8f d0 85 3d 79 d3 ee bc 9c 90 99 bb
       -0.07468225 0.0653392 -0.029153572 -0.0046864282
0001c0 f3 3a 46 3d 9f 4e ed 3a 79 c0 1f bd f9 82 97 bc
       0.048396062 0.0018105096 -0.039001916 -0.01849507
0001d0 b0 ea 78 3d f7 2e a3 3d ec 28 53 3d ec a0 6d 3d
       0.06077069 0.07967942 0.051552698 0.058014795
0001e0 28 85 cc 3c 37 94 a0 3d 00 0a de 3c c7 b6 43 3d
       0.024965838 0.0784077 0.027104378 0.047781732
0001f0 7e 1e 9f b9 13 b7 de bd 3e d3 d6 bc 8f f0 58 3d
       -0.00030349562 -0.108747624 -0.026223775 0.05296379
000200 d3 dc 7a 3a 10 25 b5 3b 45 e8 11 3c a9 a6 50 bd
       0.00095696485 0.0055281 0.008905475 -0.05094019
000210 f7 5b 83 bd 96 ca b7 bd cc 55 f8 3c 59 38 8d 3b
       -0.06414025 -0.08974187 0.030314349 0.0043096957
000220 f5 0f 58 bd f3 fb e9 bb 03 06 b7 bd 3f 1f 3f bd
       -0.052749593 -0.0071406304 -0.089366935 -0.046660658
000230 ec fa af 3c db 60 6f bc e7 58 9e 3d ce d2 b4 bc
       0.021481954 -0.0146104945 0.077318005 -0.022073176
000240 fb f4 36 3d 28 5c f5 bc 8c bd 18 bd 50 ed 6b bd
       0.044667225 -0.02995117 -0.03729014 -0.057599366
000250 73 3d 20 bc e6 6e 18 ba f7 8d d6 3c 1d 47 82 bd
       -0.009780276 -0.0005814865 0.026190741 -0.0636122
000260 60 5a a9 bc de 45 cd 3c f7 67 0d 3c ea 30 6e 3c
       -0.020672977 0.02505773 0.008630744 0.014538029
000270 f0 69 d4 bd 5d 91 02 bc b5 ca 39 bd ae 4c a0 bc
       -0.103717685 -0.007969228 -0.045359332 -0.019567814
000280 43 ab a4 bc 74 82 05 bc 79 b6 5d bd 8b ec 9e bd
       -0.020101195 -0.008148778 -0.054129098 -0.07759961
000290 b3 65 47 bd 43 6b 17 bd 01 f7 35 3d 97 cf 7e 3c
       -0.048680972 -0.036967527 0.044425014 0.015552423
0002a0 25 3b 1f bb 8d 24 60 bd 93 7d ec bc 19 23 2b bd
       -0.0024296727 -0.054722358 -0.028868472 -0.04178152
0002b0 62 81 7b 3d 9c e1 22 3c 22 80 85 3d 1b 35 ae bc
       0.061402686 0.009941485 0.0651858 -0.021265557
0002c0 8a f5 74 bd 61 18 34 bb f6 36 06 bd 86 fb e3 3a
       -0.059804477 -0.0027480351 -0.03276726 0.0017393685
0002d0 29 88 97 3c b4 c5 91 bd 78 69 82 bd 0d d7 6d 3d
       0.018497543 -0.07117787 -0.06367773 0.058066417
0002e0 9a 2a 3a bd fb dd ed 3a 60 08 a4 3c 0d fc eb bd
       -0.045450784 0.001814782 0.020023525 -0.11522684
0002f0 c8 45 be bd 42 ba 93 bc f2 4a aa bd ee f7 04 bd
       -0.092906535 -0.01803315 -0.08315076 -0.032463007
000300 7a df 7d bd 40 bc 7d bd c4 89 b4 3b 4b c9 cc bc
       -0.061980702 -0.061947107 0.005509587 -0.024998328
000310 4f df 60 bd 56 1e 6c bd a2 ae 0c bd 6a b5 fb bb
       -0.054900464 -0.057646118 -0.03434623 -0.0076815384
000320 89 24 48 3d 2f 40 53 3d 48 c5 ae 3c cd 86 3d bd
       0.048862968 0.051574882 0.021334305 -0.046271134
000330 55 a4 e4 3c 52 3f ba bd 48 c1 72 bd 69 ac a6 3b
       0.02791039 -0.09094109 -0.05926636 0.005086471
000340 5c 71 0b bc 14 0f 17 bd 36 6b ad 3c a0 f1 ab 3b
       -0.008510914 -0.036879614 0.021169286 0.00524731
000350 8a dc 55 bd da 94 cb bc 15 03 87 bc 1b c6 2d 3d
       -0.052212276 -0.024851251 -0.016480962 0.042425256
000360 d5 90 e3 3c 02 27 78 bd fa 13 43 3d af ff 98 bd
       0.027779022 -0.060584076 0.047626473 -0.07470643
000370 26 0e 86 3d bb 70 62 3c 0b 49 60 bd 28 f3 80 3d
       0.06545667 0.013820822 -0.05475716 0.062963784
000380 35 2b 52 3d d2 10 3b bd e0 0c 3f 3d 37 48 78 bd
       0.051310737 -0.045670338 0.046643138 -0.060615744
000390 a2 c3 5f bd 42 86 e1 3c 18 bf 0c 3c fa 73 6b 3d
       -0.05462993 0.02752984 0.008590482 0.05748365
0003a0 44 d2 2a bd ee 6a bb 3c 49 fb a3 bd 6e 9a 6a bd
       -0.04170443 0.022878136 -0.08006913 -0.057276182
0003b0 7e 0e e6 bc 29 ab ab 3d 71 57 8d 3d e0 29 38 3c
       -0.028083082 0.083822556 0.06901444 0.0112404525
0003c0 13 0f 67 3d 96 58 81 bc 1b 78 e1 3c 24 df 82 bd
       0.05641086 -0.015789311 0.027523091 -0.06390217
0003d0 ee c0 2a bd 6d f6 43 3d f5 7d 2b 3d 56 80 ba bb
       -0.0416879 0.04784243 0.04186817 -0.0056915684
0003e0 b6 2a 0f 3d 39 23 58 3d 78 80 c4 3d 01 81 2b 3d
       0.03495284 0.052767966 0.09594816 0.041871075
0003f0 7e a4 92 3d 55 1f a0 bd a4 c1 e7 3c 53 51 39 3d
       0.07160281 -0.07818476 0.028290577 0.045243572

sequential/dense_1/MatMul f4 [1, 64]
000000 64 d0 f5 bd 8d 75 85 3d bb 9a 5c bc ba 3c 45 be
       -0.12002638 0.06516562 -0.013464625 -0.19261447
000010 d5 ac 32 3e cf 50 23 be e0 df 85 be cd 41 95 3e
       0.17448743 -0.15948795 -0.26147366 0.29151765
000020 9f 63 6e be a6 0a 18 3d 3e b1 91 be 54 ba c4 3e
       -0.2328019 0.03711953 -0.28455538 0.38423407
000030 ec 74 6d be 33 40 5a 3e 9b 32 a9 be 77 14 cb 3e
       -0.23189133 0.21313553 -0.3304642 0.3966405
000040 20 ee 29 3e de a8 94 3e 20 3e 3d bd 29 31 45 3e
       0.16594744 0.29035085 -0.046201825 0.19257034
000050 55 6f 99 be 82 68 b7 be 82 bc 4c 3d 48 2d 4e be
       -0.29967752 -0.3582192 0.049984463 -0.20134461
000060 53 38 9b be 54 63 88 be f7 81 b7 bd d0 11 65 3e
       -0.3031641 -0.2663828 -0.08960336 0.22370076
000070 7a 86 20 be 66 41 19 be 66 03 0f be a3 2e 14 3e
       -0.15676299 -0.14966354 -0.1396614 0.14470915
000080 74 8b 50 be 31 9e 54 3e 57 bd e6 3d ec 4c 79 3e
       -0.20365697 0.2076347 0.112665825 0.2434575
000090 fd 11 33 3e 73 65 46 be 87 50 9a be 1a 06 80 3e
       0.1748733 -0.19374637 -0.30139562 0.25004655
0000a0 c9 53 84 be 94 8c 76 be 05 35 de bd 1d 76 1a 3e
       -0.25845173 -0.24077064 -0.108499564 0.15084119
0000b0 fc 52 75 3e 36 e8 0c 3e df 59 a7 3e d9 63 bd 3e
       0.23957437 0.13760456 0.32685754 0.3699024
0000c0 95 56 f7 3c 30 9d 30 3e ee 53 56 be 1b bc 8e 3e
       0.030192653 0.17247462 -0.20930454 0.27877888
0000d0 0f 10 a2 be 20 0f 2c be 2a 57 82 3e 7e 92 c5 3e
       -0.31652877 -0.16802645 0.25457126 0.38588327
0000e0 43 ab 5b 3e 7f e5 55 3e 49 f4 31 be 44 a5 87 be
       0.2145205 0.20888327 -0.17378344 -0.26493275
0000f0 5b d9 98 3c bc 6c 7a 3e 34 75 86 be e6 f4 bf bb
       0.01865833 0.24455541 -0.26261294 -0.0058580516
